{"format": "layers-model", "generatedBy": "keras v2.4.0", "convertedBy": "TensorFlow.js Converter v2.8.2", "modelTopology": {"keras_version": "2.4.0", "backend": "tensorflow", "model_config": {"class_name": "Functional", "config": {"name": "Fast_SCNN", "layers": [{"class_name": "InputLayer", "config": {"batch_input_shape": [null, 512, 256, 3], "dtype": "float32", "sparse": false, "ragged": false, "name": "input_layer"}, "name": "input_layer", "inbound_nodes": []}, {"class_name": "Conv2D", "config": {"name": "Downsampling_1_Conv", "trainable": true, "dtype": "float32", "filters": 32, "kernel_size": [3, 3], "strides": [2, 2], "padding": "same", "data_format": "channels_last", "dilation_rate": [1, 1], "groups": 1, "activation": "linear", "use_bias": true, "kernel_initializer": {"class_name": "GlorotUniform", "config": {"seed": null}}, "bias_initializer": {"class_name": "Zeros", "config": {}}, "kernel_regularizer": null, "bias_regularizer": null, "activity_regularizer": null, "kernel_constraint": null, "bias_constraint": null}, "name": "Downsampling_1_Conv", "inbound_nodes": [[["input_layer", 0, 0, {}]]]}, {"class_name": "BatchNormalization", "config": {"name": "Downsampling_1_BatchNorm", "trainable": true, "dtype": "float32", "axis": [3], "momentum": 0.99, "epsilon": 0.001, "center": true, "scale": true, "beta_initializer": {"class_name": "Zeros", "config": {}}, "gamma_initializer": {"class_name": "Ones", "config": {}}, "moving_mean_initializer": {"class_name": "Zeros", "config": {}}, "moving_variance_initializer": {"class_name": "Ones", "config": {}}, "beta_regularizer": null, "gamma_regularizer": null, "beta_constraint": null, "gamma_constraint": null}, "name": "Downsampling_1_BatchNorm", "inbound_nodes": [[["Downsampling_1_Conv", 0, 0, {}]]]}, {"class_name": "ReLU", "config": {"name": "re_lu", "trainable": true, "dtype": "float32", "max_value": null, "negative_slope": 0.0, "threshold": 0.0}, "name": "re_lu", "inbound_nodes": [[["Downsampling_1_BatchNorm", 0, 0, {}]]]}, {"class_name": "Conv2D", "config": {"name": "Downsampling_2_SeparableConv", "trainable": true, "dtype": "float32", "filters": 48, "kernel_size": [3, 3], "strides": [2, 2], "padding": "same", "data_format": "channels_last", "dilation_rate": [1, 1], "groups": 1, "activation": "linear", "use_bias": true, "kernel_initializer": {"class_name": "GlorotUniform", "config": {"seed": null}}, "bias_initializer": {"class_name": "Zeros", "config": {}}, "kernel_regularizer": null, "bias_regularizer": null, "activity_regularizer": null, "kernel_constraint": null, "bias_constraint": null}, "name": "Downsampling_2_SeparableConv", "inbound_nodes": [[["re_lu", 0, 0, {}]]]}, {"class_name": "BatchNormalization", "config": {"name": "Downsampling_2_BatchNorm", "trainable": true, "dtype": "float32", "axis": [3], "momentum": 0.99, "epsilon": 0.001, "center": true, "scale": true, "beta_initializer": {"class_name": "Zeros", "config": {}}, "gamma_initializer": {"class_name": "Ones", "config": {}}, "moving_mean_initializer": {"class_name": "Zeros", "config": {}}, "moving_variance_initializer": {"class_name": "Ones", "config": {}}, "beta_regularizer": null, "gamma_regularizer": null, "beta_constraint": null, "gamma_constraint": null}, "name": "Downsampling_2_BatchNorm", "inbound_nodes": [[["Downsampling_2_SeparableConv", 0, 0, {}]]]}, {"class_name": "ReLU", "config": {"name": "re_lu_1", "trainable": true, "dtype": "float32", "max_value": null, "negative_slope": 0.0, "threshold": 0.0}, "name": "re_lu_1", "inbound_nodes": [[["Downsampling_2_BatchNorm", 0, 0, {}]]]}, {"class_name": "Conv2D", "config": {"name": "Downsampling_3_SeparableConv", "trainable": true, "dtype": "float32", "filters": 64, "kernel_size": [3, 3], "strides": [2, 2], "padding": "same", "data_format": "channels_last", "dilation_rate": [1, 1], "groups": 1, "activation": "linear", "use_bias": true, "kernel_initializer": {"class_name": "GlorotUniform", "config": {"seed": null}}, "bias_initializer": {"class_name": "Zeros", "config": {}}, "kernel_regularizer": null, "bias_regularizer": null, "activity_regularizer": null, "kernel_constraint": null, "bias_constraint": null}, "name": "Downsampling_3_SeparableConv", "inbound_nodes": [[["re_lu_1", 0, 0, {}]]]}, {"class_name": "BatchNormalization", "config": {"name": "Downsampling_3_BatchNorm", "trainable": true, "dtype": "float32", "axis": [3], "momentum": 0.99, "epsilon": 0.001, "center": true, "scale": true, "beta_initializer": {"class_name": "Zeros", "config": {}}, "gamma_initializer": {"class_name": "Ones", "config": {}}, "moving_mean_initializer": {"class_name": "Zeros", "config": {}}, "moving_variance_initializer": {"class_name": "Ones", "config": {}}, "beta_regularizer": null, "gamma_regularizer": null, "beta_constraint": null, "gamma_constraint": null}, "name": "Downsampling_3_BatchNorm", "inbound_nodes": [[["Downsampling_3_SeparableConv", 0, 0, {}]]]}, {"class_name": "ReLU", "config": {"name": "re_lu_2", "trainable": true, "dtype": "float32", "max_value": null, "negative_slope": 0.0, "threshold": 0.0}, "name": "re_lu_2", "inbound_nodes": [[["Downsampling_3_BatchNorm", 0, 0, {}]]]}, {"class_name": "Conv2D", "config": {"name": "Residual_bottleneck_entry_0_0_Conv", "trainable": true, "dtype": "float32", "filters": 384, "kernel_size": [1, 1], "strides": [1, 1], "padding": "same", "data_format": "channels_last", "dilation_rate": [1, 1], "groups": 1, "activation": "linear", "use_bias": true, "kernel_initializer": {"class_name": "GlorotUniform", "config": {"seed": null}}, "bias_initializer": {"class_name": "Zeros", "config": {}}, "kernel_regularizer": null, "bias_regularizer": null, "activity_regularizer": null, "kernel_constraint": null, "bias_constraint": null}, "name": "Residual_bottleneck_entry_0_0_Conv", "inbound_nodes": [[["re_lu_2", 0, 0, {}]]]}, {"class_name": "BatchNormalization", "config": {"name": "Residual_bottleneck_entry_0_0_BatchNorm", "trainable": true, "dtype": "float32", "axis": [3], "momentum": 0.99, "epsilon": 0.001, "center": true, "scale": true, "beta_initializer": {"class_name": "Zeros", "config": {}}, "gamma_initializer": {"class_name": "Ones", "config": {}}, "moving_mean_initializer": {"class_name": "Zeros", "config": {}}, "moving_variance_initializer": {"class_name": "Ones", "config": {}}, "beta_regularizer": null, "gamma_regularizer": null, "beta_constraint": null, "gamma_constraint": null}, "name": "Residual_bottleneck_entry_0_0_BatchNorm", "inbound_nodes": [[["Residual_bottleneck_entry_0_0_Conv", 0, 0, {}]]]}, {"class_name": "ReLU", "config": {"name": "re_lu_3", "trainable": true, "dtype": "float32", "max_value": null, "negative_slope": 0.0, "threshold": 0.0}, "name": "re_lu_3", "inbound_nodes": [[["Residual_bottleneck_entry_0_0_BatchNorm", 0, 0, {}]]]}, {"class_name": "DepthwiseConv2D", "config": {"name": "depthwise_conv2d", "trainable": true, "dtype": "float32", "kernel_size": [3, 3], "strides": [2, 2], "padding": "same", "data_format": "channels_last", "dilation_rate": [1, 1], "groups": 1, "activation": "linear", "use_bias": true, "bias_initializer": {"class_name": "Zeros", "config": {}}, "bias_regularizer": null, "activity_regularizer": null, "bias_constraint": null, "depth_multiplier": 1, "depthwise_initializer": {"class_name": "GlorotUniform", "config": {"seed": null}}, "depthwise_regularizer": null, "depthwise_constraint": null}, "name": "depthwise_conv2d", "inbound_nodes": [[["re_lu_3", 0, 0, {}]]]}, {"class_name": "BatchNormalization", "config": {"name": "batch_normalization", "trainable": true, "dtype": "float32", "axis": [3], "momentum": 0.99, "epsilon": 0.001, "center": true, "scale": true, "beta_initializer": {"class_name": "Zeros", "config": {}}, "gamma_initializer": {"class_name": "Ones", "config": {}}, "moving_mean_initializer": {"class_name": "Zeros", "config": {}}, "moving_variance_initializer": {"class_name": "Ones", "config": {}}, "beta_regularizer": null, "gamma_regularizer": null, "beta_constraint": null, "gamma_constraint": null}, "name": "batch_normalization", "inbound_nodes": [[["depthwise_conv2d", 0, 0, {}]]]}, {"class_name": "ReLU", "config": {"name": "re_lu_4", "trainable": true, "dtype": "float32", "max_value": null, "negative_slope": 0.0, "threshold": 0.0}, "name": "re_lu_4", "inbound_nodes": [[["batch_normalization", 0, 0, {}]]]}, {"class_name": "Conv2D", "config": {"name": "Residual_bottleneck_exit_0_0_Conv", "trainable": true, "dtype": "float32", "filters": 64, "kernel_size": [1, 1], "strides": [1, 1], "padding": "same", "data_format": "channels_last", "dilation_rate": [1, 1], "groups": 1, "activation": "linear", "use_bias": true, "kernel_initializer": {"class_name": "GlorotUniform", "config": {"seed": null}}, "bias_initializer": {"class_name": "Zeros", "config": {}}, "kernel_regularizer": null, "bias_regularizer": null, "activity_regularizer": null, "kernel_constraint": null, "bias_constraint": null}, "name": "Residual_bottleneck_exit_0_0_Conv", "inbound_nodes": [[["re_lu_4", 0, 0, {}]]]}, {"class_name": "BatchNormalization", "config": {"name": "Residual_bottleneck_exit_0_0_BatchNorm", "trainable": true, "dtype": "float32", "axis": [3], "momentum": 0.99, "epsilon": 0.001, "center": true, "scale": true, "beta_initializer": {"class_name": "Zeros", "config": {}}, "gamma_initializer": {"class_name": "Ones", "config": {}}, "moving_mean_initializer": {"class_name": "Zeros", "config": {}}, "moving_variance_initializer": {"class_name": "Ones", "config": {}}, "beta_regularizer": null, "gamma_regularizer": null, "beta_constraint": null, "gamma_constraint": null}, "name": "Residual_bottleneck_exit_0_0_BatchNorm", "inbound_nodes": [[["Residual_bottleneck_exit_0_0_Conv", 0, 0, {}]]]}, {"class_name": "Conv2D", "config": {"name": "Residual_bottleneck_entry_0_1_Conv", "trainable": true, "dtype": "float32", "filters": 384, "kernel_size": [1, 1], "strides": [1, 1], "padding": "same", "data_format": "channels_last", "dilation_rate": [1, 1], "groups": 1, "activation": "linear", "use_bias": true, "kernel_initializer": {"class_name": "GlorotUniform", "config": {"seed": null}}, "bias_initializer": {"class_name": "Zeros", "config": {}}, "kernel_regularizer": null, "bias_regularizer": null, "activity_regularizer": null, "kernel_constraint": null, "bias_constraint": null}, "name": "Residual_bottleneck_entry_0_1_Conv", "inbound_nodes": [[["Residual_bottleneck_exit_0_0_BatchNorm", 0, 0, {}]]]}, {"class_name": "BatchNormalization", "config": {"name": "Residual_bottleneck_entry_0_1_BatchNorm", "trainable": true, "dtype": "float32", "axis": [3], "momentum": 0.99, "epsilon": 0.001, "center": true, "scale": true, "beta_initializer": {"class_name": "Zeros", "config": {}}, "gamma_initializer": {"class_name": "Ones", "config": {}}, "moving_mean_initializer": {"class_name": "Zeros", "config": {}}, "moving_variance_initializer": {"class_name": "Ones", "config": {}}, "beta_regularizer": null, "gamma_regularizer": null, "beta_constraint": null, "gamma_constraint": null}, "name": "Residual_bottleneck_entry_0_1_BatchNorm", "inbound_nodes": [[["Residual_bottleneck_entry_0_1_Conv", 0, 0, {}]]]}, {"class_name": "ReLU", "config": {"name": "re_lu_5", "trainable": true, "dtype": "float32", "max_value": null, "negative_slope": 0.0, "threshold": 0.0}, "name": "re_lu_5", "inbound_nodes": [[["Residual_bottleneck_entry_0_1_BatchNorm", 0, 0, {}]]]}, {"class_name": "DepthwiseConv2D", "config": {"name": "depthwise_conv2d_1", "trainable": true, "dtype": "float32", "kernel_size": [3, 3], "strides": [1, 1], "padding": "same", "data_format": "channels_last", "dilation_rate": [1, 1], "groups": 1, "activation": "linear", "use_bias": true, "bias_initializer": {"class_name": "Zeros", "config": {}}, "bias_regularizer": null, "activity_regularizer": null, "bias_constraint": null, "depth_multiplier": 1, "depthwise_initializer": {"class_name": "GlorotUniform", "config": {"seed": null}}, "depthwise_regularizer": null, "depthwise_constraint": null}, "name": "depthwise_conv2d_1", "inbound_nodes": [[["re_lu_5", 0, 0, {}]]]}, {"class_name": "BatchNormalization", "config": {"name": "batch_normalization_1", "trainable": true, "dtype": "float32", "axis": [3], "momentum": 0.99, "epsilon": 0.001, "center": true, "scale": true, "beta_initializer": {"class_name": "Zeros", "config": {}}, "gamma_initializer": {"class_name": "Ones", "config": {}}, "moving_mean_initializer": {"class_name": "Zeros", "config": {}}, "moving_variance_initializer": {"class_name": "Ones", "config": {}}, "beta_regularizer": null, "gamma_regularizer": null, "beta_constraint": null, "gamma_constraint": null}, "name": "batch_normalization_1", "inbound_nodes": [[["depthwise_conv2d_1", 0, 0, {}]]]}, {"class_name": "ReLU", "config": {"name": "re_lu_6", "trainable": true, "dtype": "float32", "max_value": null, "negative_slope": 0.0, "threshold": 0.0}, "name": "re_lu_6", "inbound_nodes": [[["batch_normalization_1", 0, 0, {}]]]}, {"class_name": "Conv2D", "config": {"name": "Residual_bottleneck_exit_0_1_Conv", "trainable": true, "dtype": "float32", "filters": 64, "kernel_size": [1, 1], "strides": [1, 1], "padding": "same", "data_format": "channels_last", "dilation_rate": [1, 1], "groups": 1, "activation": "linear", "use_bias": true, "kernel_initializer": {"class_name": "GlorotUniform", "config": {"seed": null}}, "bias_initializer": {"class_name": "Zeros", "config": {}}, "kernel_regularizer": null, "bias_regularizer": null, "activity_regularizer": null, "kernel_constraint": null, "bias_constraint": null}, "name": "Residual_bottleneck_exit_0_1_Conv", "inbound_nodes": [[["re_lu_6", 0, 0, {}]]]}, {"class_name": "BatchNormalization", "config": {"name": "Residual_bottleneck_exit_0_1_BatchNorm", "trainable": true, "dtype": "float32", "axis": [3], "momentum": 0.99, "epsilon": 0.001, "center": true, "scale": true, "beta_initializer": {"class_name": "Zeros", "config": {}}, "gamma_initializer": {"class_name": "Ones", "config": {}}, "moving_mean_initializer": {"class_name": "Zeros", "config": {}}, "moving_variance_initializer": {"class_name": "Ones", "config": {}}, "beta_regularizer": null, "gamma_regularizer": null, "beta_constraint": null, "gamma_constraint": null}, "name": "Residual_bottleneck_exit_0_1_BatchNorm", "inbound_nodes": [[["Residual_bottleneck_exit_0_1_Conv", 0, 0, {}]]]}, {"class_name": "Add", "config": {"name": "add", "trainable": true, "dtype": "float32"}, "name": "add", "inbound_nodes": [[["Residual_bottleneck_exit_0_1_BatchNorm", 0, 0, {}], ["Residual_bottleneck_exit_0_0_BatchNorm", 0, 0, {}]]]}, {"class_name": "Conv2D", "config": {"name": "Residual_bottleneck_entry_0_2_Conv", "trainable": true, "dtype": "float32", "filters": 384, "kernel_size": [1, 1], "strides": [1, 1], "padding": "same", "data_format": "channels_last", "dilation_rate": [1, 1], "groups": 1, "activation": "linear", "use_bias": true, "kernel_initializer": {"class_name": "GlorotUniform", "config": {"seed": null}}, "bias_initializer": {"class_name": "Zeros", "config": {}}, "kernel_regularizer": null, "bias_regularizer": null, "activity_regularizer": null, "kernel_constraint": null, "bias_constraint": null}, "name": "Residual_bottleneck_entry_0_2_Conv", "inbound_nodes": [[["add", 0, 0, {}]]]}, {"class_name": "BatchNormalization", "config": {"name": "Residual_bottleneck_entry_0_2_BatchNorm", "trainable": true, "dtype": "float32", "axis": [3], "momentum": 0.99, "epsilon": 0.001, "center": true, "scale": true, "beta_initializer": {"class_name": "Zeros", "config": {}}, "gamma_initializer": {"class_name": "Ones", "config": {}}, "moving_mean_initializer": {"class_name": "Zeros", "config": {}}, "moving_variance_initializer": {"class_name": "Ones", "config": {}}, "beta_regularizer": null, "gamma_regularizer": null, "beta_constraint": null, "gamma_constraint": null}, "name": "Residual_bottleneck_entry_0_2_BatchNorm", "inbound_nodes": [[["Residual_bottleneck_entry_0_2_Conv", 0, 0, {}]]]}, {"class_name": "ReLU", "config": {"name": "re_lu_7", "trainable": true, "dtype": "float32", "max_value": null, "negative_slope": 0.0, "threshold": 0.0}, "name": "re_lu_7", "inbound_nodes": [[["Residual_bottleneck_entry_0_2_BatchNorm", 0, 0, {}]]]}, {"class_name": "DepthwiseConv2D", "config": {"name": "depthwise_conv2d_2", "trainable": true, "dtype": "float32", "kernel_size": [3, 3], "strides": [1, 1], "padding": "same", "data_format": "channels_last", "dilation_rate": [1, 1], "groups": 1, "activation": "linear", "use_bias": true, "bias_initializer": {"class_name": "Zeros", "config": {}}, "bias_regularizer": null, "activity_regularizer": null, "bias_constraint": null, "depth_multiplier": 1, "depthwise_initializer": {"class_name": "GlorotUniform", "config": {"seed": null}}, "depthwise_regularizer": null, "depthwise_constraint": null}, "name": "depthwise_conv2d_2", "inbound_nodes": [[["re_lu_7", 0, 0, {}]]]}, {"class_name": "BatchNormalization", "config": {"name": "batch_normalization_2", "trainable": true, "dtype": "float32", "axis": [3], "momentum": 0.99, "epsilon": 0.001, "center": true, "scale": true, "beta_initializer": {"class_name": "Zeros", "config": {}}, "gamma_initializer": {"class_name": "Ones", "config": {}}, "moving_mean_initializer": {"class_name": "Zeros", "config": {}}, "moving_variance_initializer": {"class_name": "Ones", "config": {}}, "beta_regularizer": null, "gamma_regularizer": null, "beta_constraint": null, "gamma_constraint": null}, "name": "batch_normalization_2", "inbound_nodes": [[["depthwise_conv2d_2", 0, 0, {}]]]}, {"class_name": "ReLU", "config": {"name": "re_lu_8", "trainable": true, "dtype": "float32", "max_value": null, "negative_slope": 0.0, "threshold": 0.0}, "name": "re_lu_8", "inbound_nodes": [[["batch_normalization_2", 0, 0, {}]]]}, {"class_name": "Conv2D", "config": {"name": "Residual_bottleneck_exit_0_2_Conv", "trainable": true, "dtype": "float32", "filters": 64, "kernel_size": [1, 1], "strides": [1, 1], "padding": "same", "data_format": "channels_last", "dilation_rate": [1, 1], "groups": 1, "activation": "linear", "use_bias": true, "kernel_initializer": {"class_name": "GlorotUniform", "config": {"seed": null}}, "bias_initializer": {"class_name": "Zeros", "config": {}}, "kernel_regularizer": null, "bias_regularizer": null, "activity_regularizer": null, "kernel_constraint": null, "bias_constraint": null}, "name": "Residual_bottleneck_exit_0_2_Conv", "inbound_nodes": [[["re_lu_8", 0, 0, {}]]]}, {"class_name": "BatchNormalization", "config": {"name": "Residual_bottleneck_exit_0_2_BatchNorm", "trainable": true, "dtype": "float32", "axis": [3], "momentum": 0.99, "epsilon": 0.001, "center": true, "scale": true, "beta_initializer": {"class_name": "Zeros", "config": {}}, "gamma_initializer": {"class_name": "Ones", "config": {}}, "moving_mean_initializer": {"class_name": "Zeros", "config": {}}, "moving_variance_initializer": {"class_name": "Ones", "config": {}}, "beta_regularizer": null, "gamma_regularizer": null, "beta_constraint": null, "gamma_constraint": null}, "name": "Residual_bottleneck_exit_0_2_BatchNorm", "inbound_nodes": [[["Residual_bottleneck_exit_0_2_Conv", 0, 0, {}]]]}, {"class_name": "Add", "config": {"name": "add_1", "trainable": true, "dtype": "float32"}, "name": "add_1", "inbound_nodes": [[["Residual_bottleneck_exit_0_2_BatchNorm", 0, 0, {}], ["add", 0, 0, {}]]]}, {"class_name": "Conv2D", "config": {"name": "Residual_bottleneck_entry_1_0_Conv", "trainable": true, "dtype": "float32", "filters": 384, "kernel_size": [1, 1], "strides": [1, 1], "padding": "same", "data_format": "channels_last", "dilation_rate": [1, 1], "groups": 1, "activation": "linear", "use_bias": true, "kernel_initializer": {"class_name": "GlorotUniform", "config": {"seed": null}}, "bias_initializer": {"class_name": "Zeros", "config": {}}, "kernel_regularizer": null, "bias_regularizer": null, "activity_regularizer": null, "kernel_constraint": null, "bias_constraint": null}, "name": "Residual_bottleneck_entry_1_0_Conv", "inbound_nodes": [[["add_1", 0, 0, {}]]]}, {"class_name": "BatchNormalization", "config": {"name": "Residual_bottleneck_entry_1_0_BatchNorm", "trainable": true, "dtype": "float32", "axis": [3], "momentum": 0.99, "epsilon": 0.001, "center": true, "scale": true, "beta_initializer": {"class_name": "Zeros", "config": {}}, "gamma_initializer": {"class_name": "Ones", "config": {}}, "moving_mean_initializer": {"class_name": "Zeros", "config": {}}, "moving_variance_initializer": {"class_name": "Ones", "config": {}}, "beta_regularizer": null, "gamma_regularizer": null, "beta_constraint": null, "gamma_constraint": null}, "name": "Residual_bottleneck_entry_1_0_BatchNorm", "inbound_nodes": [[["Residual_bottleneck_entry_1_0_Conv", 0, 0, {}]]]}, {"class_name": "ReLU", "config": {"name": "re_lu_9", "trainable": true, "dtype": "float32", "max_value": null, "negative_slope": 0.0, "threshold": 0.0}, "name": "re_lu_9", "inbound_nodes": [[["Residual_bottleneck_entry_1_0_BatchNorm", 0, 0, {}]]]}, {"class_name": "DepthwiseConv2D", "config": {"name": "depthwise_conv2d_3", "trainable": true, "dtype": "float32", "kernel_size": [3, 3], "strides": [2, 2], "padding": "same", "data_format": "channels_last", "dilation_rate": [1, 1], "groups": 1, "activation": "linear", "use_bias": true, "bias_initializer": {"class_name": "Zeros", "config": {}}, "bias_regularizer": null, "activity_regularizer": null, "bias_constraint": null, "depth_multiplier": 1, "depthwise_initializer": {"class_name": "GlorotUniform", "config": {"seed": null}}, "depthwise_regularizer": null, "depthwise_constraint": null}, "name": "depthwise_conv2d_3", "inbound_nodes": [[["re_lu_9", 0, 0, {}]]]}, {"class_name": "BatchNormalization", "config": {"name": "batch_normalization_3", "trainable": true, "dtype": "float32", "axis": [3], "momentum": 0.99, "epsilon": 0.001, "center": true, "scale": true, "beta_initializer": {"class_name": "Zeros", "config": {}}, "gamma_initializer": {"class_name": "Ones", "config": {}}, "moving_mean_initializer": {"class_name": "Zeros", "config": {}}, "moving_variance_initializer": {"class_name": "Ones", "config": {}}, "beta_regularizer": null, "gamma_regularizer": null, "beta_constraint": null, "gamma_constraint": null}, "name": "batch_normalization_3", "inbound_nodes": [[["depthwise_conv2d_3", 0, 0, {}]]]}, {"class_name": "ReLU", "config": {"name": "re_lu_10", "trainable": true, "dtype": "float32", "max_value": null, "negative_slope": 0.0, "threshold": 0.0}, "name": "re_lu_10", "inbound_nodes": [[["batch_normalization_3", 0, 0, {}]]]}, {"class_name": "Conv2D", "config": {"name": "Residual_bottleneck_exit_1_0_Conv", "trainable": true, "dtype": "float32", "filters": 96, "kernel_size": [1, 1], "strides": [1, 1], "padding": "same", "data_format": "channels_last", "dilation_rate": [1, 1], "groups": 1, "activation": "linear", "use_bias": true, "kernel_initializer": {"class_name": "GlorotUniform", "config": {"seed": null}}, "bias_initializer": {"class_name": "Zeros", "config": {}}, "kernel_regularizer": null, "bias_regularizer": null, "activity_regularizer": null, "kernel_constraint": null, "bias_constraint": null}, "name": "Residual_bottleneck_exit_1_0_Conv", "inbound_nodes": [[["re_lu_10", 0, 0, {}]]]}, {"class_name": "BatchNormalization", "config": {"name": "Residual_bottleneck_exit_1_0_BatchNorm", "trainable": true, "dtype": "float32", "axis": [3], "momentum": 0.99, "epsilon": 0.001, "center": true, "scale": true, "beta_initializer": {"class_name": "Zeros", "config": {}}, "gamma_initializer": {"class_name": "Ones", "config": {}}, "moving_mean_initializer": {"class_name": "Zeros", "config": {}}, "moving_variance_initializer": {"class_name": "Ones", "config": {}}, "beta_regularizer": null, "gamma_regularizer": null, "beta_constraint": null, "gamma_constraint": null}, "name": "Residual_bottleneck_exit_1_0_BatchNorm", "inbound_nodes": [[["Residual_bottleneck_exit_1_0_Conv", 0, 0, {}]]]}, {"class_name": "Conv2D", "config": {"name": "Residual_bottleneck_entry_1_1_Conv", "trainable": true, "dtype": "float32", "filters": 576, "kernel_size": [1, 1], "strides": [1, 1], "padding": "same", "data_format": "channels_last", "dilation_rate": [1, 1], "groups": 1, "activation": "linear", "use_bias": true, "kernel_initializer": {"class_name": "GlorotUniform", "config": {"seed": null}}, "bias_initializer": {"class_name": "Zeros", "config": {}}, "kernel_regularizer": null, "bias_regularizer": null, "activity_regularizer": null, "kernel_constraint": null, "bias_constraint": null}, "name": "Residual_bottleneck_entry_1_1_Conv", "inbound_nodes": [[["Residual_bottleneck_exit_1_0_BatchNorm", 0, 0, {}]]]}, {"class_name": "BatchNormalization", "config": {"name": "Residual_bottleneck_entry_1_1_BatchNorm", "trainable": true, "dtype": "float32", "axis": [3], "momentum": 0.99, "epsilon": 0.001, "center": true, "scale": true, "beta_initializer": {"class_name": "Zeros", "config": {}}, "gamma_initializer": {"class_name": "Ones", "config": {}}, "moving_mean_initializer": {"class_name": "Zeros", "config": {}}, "moving_variance_initializer": {"class_name": "Ones", "config": {}}, "beta_regularizer": null, "gamma_regularizer": null, "beta_constraint": null, "gamma_constraint": null}, "name": "Residual_bottleneck_entry_1_1_BatchNorm", "inbound_nodes": [[["Residual_bottleneck_entry_1_1_Conv", 0, 0, {}]]]}, {"class_name": "ReLU", "config": {"name": "re_lu_11", "trainable": true, "dtype": "float32", "max_value": null, "negative_slope": 0.0, "threshold": 0.0}, "name": "re_lu_11", "inbound_nodes": [[["Residual_bottleneck_entry_1_1_BatchNorm", 0, 0, {}]]]}, {"class_name": "DepthwiseConv2D", "config": {"name": "depthwise_conv2d_4", "trainable": true, "dtype": "float32", "kernel_size": [3, 3], "strides": [1, 1], "padding": "same", "data_format": "channels_last", "dilation_rate": [1, 1], "groups": 1, "activation": "linear", "use_bias": true, "bias_initializer": {"class_name": "Zeros", "config": {}}, "bias_regularizer": null, "activity_regularizer": null, "bias_constraint": null, "depth_multiplier": 1, "depthwise_initializer": {"class_name": "GlorotUniform", "config": {"seed": null}}, "depthwise_regularizer": null, "depthwise_constraint": null}, "name": "depthwise_conv2d_4", "inbound_nodes": [[["re_lu_11", 0, 0, {}]]]}, {"class_name": "BatchNormalization", "config": {"name": "batch_normalization_4", "trainable": true, "dtype": "float32", "axis": [3], "momentum": 0.99, "epsilon": 0.001, "center": true, "scale": true, "beta_initializer": {"class_name": "Zeros", "config": {}}, "gamma_initializer": {"class_name": "Ones", "config": {}}, "moving_mean_initializer": {"class_name": "Zeros", "config": {}}, "moving_variance_initializer": {"class_name": "Ones", "config": {}}, "beta_regularizer": null, "gamma_regularizer": null, "beta_constraint": null, "gamma_constraint": null}, "name": "batch_normalization_4", "inbound_nodes": [[["depthwise_conv2d_4", 0, 0, {}]]]}, {"class_name": "ReLU", "config": {"name": "re_lu_12", "trainable": true, "dtype": "float32", "max_value": null, "negative_slope": 0.0, "threshold": 0.0}, "name": "re_lu_12", "inbound_nodes": [[["batch_normalization_4", 0, 0, {}]]]}, {"class_name": "Conv2D", "config": {"name": "Residual_bottleneck_exit_1_1_Conv", "trainable": true, "dtype": "float32", "filters": 96, "kernel_size": [1, 1], "strides": [1, 1], "padding": "same", "data_format": "channels_last", "dilation_rate": [1, 1], "groups": 1, "activation": "linear", "use_bias": true, "kernel_initializer": {"class_name": "GlorotUniform", "config": {"seed": null}}, "bias_initializer": {"class_name": "Zeros", "config": {}}, "kernel_regularizer": null, "bias_regularizer": null, "activity_regularizer": null, "kernel_constraint": null, "bias_constraint": null}, "name": "Residual_bottleneck_exit_1_1_Conv", "inbound_nodes": [[["re_lu_12", 0, 0, {}]]]}, {"class_name": "BatchNormalization", "config": {"name": "Residual_bottleneck_exit_1_1_BatchNorm", "trainable": true, "dtype": "float32", "axis": [3], "momentum": 0.99, "epsilon": 0.001, "center": true, "scale": true, "beta_initializer": {"class_name": "Zeros", "config": {}}, "gamma_initializer": {"class_name": "Ones", "config": {}}, "moving_mean_initializer": {"class_name": "Zeros", "config": {}}, "moving_variance_initializer": {"class_name": "Ones", "config": {}}, "beta_regularizer": null, "gamma_regularizer": null, "beta_constraint": null, "gamma_constraint": null}, "name": "Residual_bottleneck_exit_1_1_BatchNorm", "inbound_nodes": [[["Residual_bottleneck_exit_1_1_Conv", 0, 0, {}]]]}, {"class_name": "Add", "config": {"name": "add_2", "trainable": true, "dtype": "float32"}, "name": "add_2", "inbound_nodes": [[["Residual_bottleneck_exit_1_1_BatchNorm", 0, 0, {}], ["Residual_bottleneck_exit_1_0_BatchNorm", 0, 0, {}]]]}, {"class_name": "Conv2D", "config": {"name": "Residual_bottleneck_entry_1_2_Conv", "trainable": true, "dtype": "float32", "filters": 576, "kernel_size": [1, 1], "strides": [1, 1], "padding": "same", "data_format": "channels_last", "dilation_rate": [1, 1], "groups": 1, "activation": "linear", "use_bias": true, "kernel_initializer": {"class_name": "GlorotUniform", "config": {"seed": null}}, "bias_initializer": {"class_name": "Zeros", "config": {}}, "kernel_regularizer": null, "bias_regularizer": null, "activity_regularizer": null, "kernel_constraint": null, "bias_constraint": null}, "name": "Residual_bottleneck_entry_1_2_Conv", "inbound_nodes": [[["add_2", 0, 0, {}]]]}, {"class_name": "BatchNormalization", "config": {"name": "Residual_bottleneck_entry_1_2_BatchNorm", "trainable": true, "dtype": "float32", "axis": [3], "momentum": 0.99, "epsilon": 0.001, "center": true, "scale": true, "beta_initializer": {"class_name": "Zeros", "config": {}}, "gamma_initializer": {"class_name": "Ones", "config": {}}, "moving_mean_initializer": {"class_name": "Zeros", "config": {}}, "moving_variance_initializer": {"class_name": "Ones", "config": {}}, "beta_regularizer": null, "gamma_regularizer": null, "beta_constraint": null, "gamma_constraint": null}, "name": "Residual_bottleneck_entry_1_2_BatchNorm", "inbound_nodes": [[["Residual_bottleneck_entry_1_2_Conv", 0, 0, {}]]]}, {"class_name": "ReLU", "config": {"name": "re_lu_13", "trainable": true, "dtype": "float32", "max_value": null, "negative_slope": 0.0, "threshold": 0.0}, "name": "re_lu_13", "inbound_nodes": [[["Residual_bottleneck_entry_1_2_BatchNorm", 0, 0, {}]]]}, {"class_name": "DepthwiseConv2D", "config": {"name": "depthwise_conv2d_5", "trainable": true, "dtype": "float32", "kernel_size": [3, 3], "strides": [1, 1], "padding": "same", "data_format": "channels_last", "dilation_rate": [1, 1], "groups": 1, "activation": "linear", "use_bias": true, "bias_initializer": {"class_name": "Zeros", "config": {}}, "bias_regularizer": null, "activity_regularizer": null, "bias_constraint": null, "depth_multiplier": 1, "depthwise_initializer": {"class_name": "GlorotUniform", "config": {"seed": null}}, "depthwise_regularizer": null, "depthwise_constraint": null}, "name": "depthwise_conv2d_5", "inbound_nodes": [[["re_lu_13", 0, 0, {}]]]}, {"class_name": "BatchNormalization", "config": {"name": "batch_normalization_5", "trainable": true, "dtype": "float32", "axis": [3], "momentum": 0.99, "epsilon": 0.001, "center": true, "scale": true, "beta_initializer": {"class_name": "Zeros", "config": {}}, "gamma_initializer": {"class_name": "Ones", "config": {}}, "moving_mean_initializer": {"class_name": "Zeros", "config": {}}, "moving_variance_initializer": {"class_name": "Ones", "config": {}}, "beta_regularizer": null, "gamma_regularizer": null, "beta_constraint": null, "gamma_constraint": null}, "name": "batch_normalization_5", "inbound_nodes": [[["depthwise_conv2d_5", 0, 0, {}]]]}, {"class_name": "ReLU", "config": {"name": "re_lu_14", "trainable": true, "dtype": "float32", "max_value": null, "negative_slope": 0.0, "threshold": 0.0}, "name": "re_lu_14", "inbound_nodes": [[["batch_normalization_5", 0, 0, {}]]]}, {"class_name": "Conv2D", "config": {"name": "Residual_bottleneck_exit_1_2_Conv", "trainable": true, "dtype": "float32", "filters": 96, "kernel_size": [1, 1], "strides": [1, 1], "padding": "same", "data_format": "channels_last", "dilation_rate": [1, 1], "groups": 1, "activation": "linear", "use_bias": true, "kernel_initializer": {"class_name": "GlorotUniform", "config": {"seed": null}}, "bias_initializer": {"class_name": "Zeros", "config": {}}, "kernel_regularizer": null, "bias_regularizer": null, "activity_regularizer": null, "kernel_constraint": null, "bias_constraint": null}, "name": "Residual_bottleneck_exit_1_2_Conv", "inbound_nodes": [[["re_lu_14", 0, 0, {}]]]}, {"class_name": "BatchNormalization", "config": {"name": "Residual_bottleneck_exit_1_2_BatchNorm", "trainable": true, "dtype": "float32", "axis": [3], "momentum": 0.99, "epsilon": 0.001, "center": true, "scale": true, "beta_initializer": {"class_name": "Zeros", "config": {}}, "gamma_initializer": {"class_name": "Ones", "config": {}}, "moving_mean_initializer": {"class_name": "Zeros", "config": {}}, "moving_variance_initializer": {"class_name": "Ones", "config": {}}, "beta_regularizer": null, "gamma_regularizer": null, "beta_constraint": null, "gamma_constraint": null}, "name": "Residual_bottleneck_exit_1_2_BatchNorm", "inbound_nodes": [[["Residual_bottleneck_exit_1_2_Conv", 0, 0, {}]]]}, {"class_name": "Add", "config": {"name": "add_3", "trainable": true, "dtype": "float32"}, "name": "add_3", "inbound_nodes": [[["Residual_bottleneck_exit_1_2_BatchNorm", 0, 0, {}], ["add_2", 0, 0, {}]]]}, {"class_name": "Conv2D", "config": {"name": "Residual_bottleneck_entry_2_0_Conv", "trainable": true, "dtype": "float32", "filters": 576, "kernel_size": [1, 1], "strides": [1, 1], "padding": "same", "data_format": "channels_last", "dilation_rate": [1, 1], "groups": 1, "activation": "linear", "use_bias": true, "kernel_initializer": {"class_name": "GlorotUniform", "config": {"seed": null}}, "bias_initializer": {"class_name": "Zeros", "config": {}}, "kernel_regularizer": null, "bias_regularizer": null, "activity_regularizer": null, "kernel_constraint": null, "bias_constraint": null}, "name": "Residual_bottleneck_entry_2_0_Conv", "inbound_nodes": [[["add_3", 0, 0, {}]]]}, {"class_name": "BatchNormalization", "config": {"name": "Residual_bottleneck_entry_2_0_BatchNorm", "trainable": true, "dtype": "float32", "axis": [3], "momentum": 0.99, "epsilon": 0.001, "center": true, "scale": true, "beta_initializer": {"class_name": "Zeros", "config": {}}, "gamma_initializer": {"class_name": "Ones", "config": {}}, "moving_mean_initializer": {"class_name": "Zeros", "config": {}}, "moving_variance_initializer": {"class_name": "Ones", "config": {}}, "beta_regularizer": null, "gamma_regularizer": null, "beta_constraint": null, "gamma_constraint": null}, "name": "Residual_bottleneck_entry_2_0_BatchNorm", "inbound_nodes": [[["Residual_bottleneck_entry_2_0_Conv", 0, 0, {}]]]}, {"class_name": "ReLU", "config": {"name": "re_lu_15", "trainable": true, "dtype": "float32", "max_value": null, "negative_slope": 0.0, "threshold": 0.0}, "name": "re_lu_15", "inbound_nodes": [[["Residual_bottleneck_entry_2_0_BatchNorm", 0, 0, {}]]]}, {"class_name": "DepthwiseConv2D", "config": {"name": "depthwise_conv2d_6", "trainable": true, "dtype": "float32", "kernel_size": [3, 3], "strides": [1, 1], "padding": "same", "data_format": "channels_last", "dilation_rate": [1, 1], "groups": 1, "activation": "linear", "use_bias": true, "bias_initializer": {"class_name": "Zeros", "config": {}}, "bias_regularizer": null, "activity_regularizer": null, "bias_constraint": null, "depth_multiplier": 1, "depthwise_initializer": {"class_name": "GlorotUniform", "config": {"seed": null}}, "depthwise_regularizer": null, "depthwise_constraint": null}, "name": "depthwise_conv2d_6", "inbound_nodes": [[["re_lu_15", 0, 0, {}]]]}, {"class_name": "BatchNormalization", "config": {"name": "batch_normalization_6", "trainable": true, "dtype": "float32", "axis": [3], "momentum": 0.99, "epsilon": 0.001, "center": true, "scale": true, "beta_initializer": {"class_name": "Zeros", "config": {}}, "gamma_initializer": {"class_name": "Ones", "config": {}}, "moving_mean_initializer": {"class_name": "Zeros", "config": {}}, "moving_variance_initializer": {"class_name": "Ones", "config": {}}, "beta_regularizer": null, "gamma_regularizer": null, "beta_constraint": null, "gamma_constraint": null}, "name": "batch_normalization_6", "inbound_nodes": [[["depthwise_conv2d_6", 0, 0, {}]]]}, {"class_name": "ReLU", "config": {"name": "re_lu_16", "trainable": true, "dtype": "float32", "max_value": null, "negative_slope": 0.0, "threshold": 0.0}, "name": "re_lu_16", "inbound_nodes": [[["batch_normalization_6", 0, 0, {}]]]}, {"class_name": "Conv2D", "config": {"name": "Residual_bottleneck_exit_2_0_Conv", "trainable": true, "dtype": "float32", "filters": 128, "kernel_size": [1, 1], "strides": [1, 1], "padding": "same", "data_format": "channels_last", "dilation_rate": [1, 1], "groups": 1, "activation": "linear", "use_bias": true, "kernel_initializer": {"class_name": "GlorotUniform", "config": {"seed": null}}, "bias_initializer": {"class_name": "Zeros", "config": {}}, "kernel_regularizer": null, "bias_regularizer": null, "activity_regularizer": null, "kernel_constraint": null, "bias_constraint": null}, "name": "Residual_bottleneck_exit_2_0_Conv", "inbound_nodes": [[["re_lu_16", 0, 0, {}]]]}, {"class_name": "BatchNormalization", "config": {"name": "Residual_bottleneck_exit_2_0_BatchNorm", "trainable": true, "dtype": "float32", "axis": [3], "momentum": 0.99, "epsilon": 0.001, "center": true, "scale": true, "beta_initializer": {"class_name": "Zeros", "config": {}}, "gamma_initializer": {"class_name": "Ones", "config": {}}, "moving_mean_initializer": {"class_name": "Zeros", "config": {}}, "moving_variance_initializer": {"class_name": "Ones", "config": {}}, "beta_regularizer": null, "gamma_regularizer": null, "beta_constraint": null, "gamma_constraint": null}, "name": "Residual_bottleneck_exit_2_0_BatchNorm", "inbound_nodes": [[["Residual_bottleneck_exit_2_0_Conv", 0, 0, {}]]]}, {"class_name": "Conv2D", "config": {"name": "Residual_bottleneck_entry_2_1_Conv", "trainable": true, "dtype": "float32", "filters": 768, "kernel_size": [1, 1], "strides": [1, 1], "padding": "same", "data_format": "channels_last", "dilation_rate": [1, 1], "groups": 1, "activation": "linear", "use_bias": true, "kernel_initializer": {"class_name": "GlorotUniform", "config": {"seed": null}}, "bias_initializer": {"class_name": "Zeros", "config": {}}, "kernel_regularizer": null, "bias_regularizer": null, "activity_regularizer": null, "kernel_constraint": null, "bias_constraint": null}, "name": "Residual_bottleneck_entry_2_1_Conv", "inbound_nodes": [[["Residual_bottleneck_exit_2_0_BatchNorm", 0, 0, {}]]]}, {"class_name": "BatchNormalization", "config": {"name": "Residual_bottleneck_entry_2_1_BatchNorm", "trainable": true, "dtype": "float32", "axis": [3], "momentum": 0.99, "epsilon": 0.001, "center": true, "scale": true, "beta_initializer": {"class_name": "Zeros", "config": {}}, "gamma_initializer": {"class_name": "Ones", "config": {}}, "moving_mean_initializer": {"class_name": "Zeros", "config": {}}, "moving_variance_initializer": {"class_name": "Ones", "config": {}}, "beta_regularizer": null, "gamma_regularizer": null, "beta_constraint": null, "gamma_constraint": null}, "name": "Residual_bottleneck_entry_2_1_BatchNorm", "inbound_nodes": [[["Residual_bottleneck_entry_2_1_Conv", 0, 0, {}]]]}, {"class_name": "ReLU", "config": {"name": "re_lu_17", "trainable": true, "dtype": "float32", "max_value": null, "negative_slope": 0.0, "threshold": 0.0}, "name": "re_lu_17", "inbound_nodes": [[["Residual_bottleneck_entry_2_1_BatchNorm", 0, 0, {}]]]}, {"class_name": "DepthwiseConv2D", "config": {"name": "depthwise_conv2d_7", "trainable": true, "dtype": "float32", "kernel_size": [3, 3], "strides": [1, 1], "padding": "same", "data_format": "channels_last", "dilation_rate": [1, 1], "groups": 1, "activation": "linear", "use_bias": true, "bias_initializer": {"class_name": "Zeros", "config": {}}, "bias_regularizer": null, "activity_regularizer": null, "bias_constraint": null, "depth_multiplier": 1, "depthwise_initializer": {"class_name": "GlorotUniform", "config": {"seed": null}}, "depthwise_regularizer": null, "depthwise_constraint": null}, "name": "depthwise_conv2d_7", "inbound_nodes": [[["re_lu_17", 0, 0, {}]]]}, {"class_name": "BatchNormalization", "config": {"name": "batch_normalization_7", "trainable": true, "dtype": "float32", "axis": [3], "momentum": 0.99, "epsilon": 0.001, "center": true, "scale": true, "beta_initializer": {"class_name": "Zeros", "config": {}}, "gamma_initializer": {"class_name": "Ones", "config": {}}, "moving_mean_initializer": {"class_name": "Zeros", "config": {}}, "moving_variance_initializer": {"class_name": "Ones", "config": {}}, "beta_regularizer": null, "gamma_regularizer": null, "beta_constraint": null, "gamma_constraint": null}, "name": "batch_normalization_7", "inbound_nodes": [[["depthwise_conv2d_7", 0, 0, {}]]]}, {"class_name": "ReLU", "config": {"name": "re_lu_18", "trainable": true, "dtype": "float32", "max_value": null, "negative_slope": 0.0, "threshold": 0.0}, "name": "re_lu_18", "inbound_nodes": [[["batch_normalization_7", 0, 0, {}]]]}, {"class_name": "Conv2D", "config": {"name": "Residual_bottleneck_exit_2_1_Conv", "trainable": true, "dtype": "float32", "filters": 128, "kernel_size": [1, 1], "strides": [1, 1], "padding": "same", "data_format": "channels_last", "dilation_rate": [1, 1], "groups": 1, "activation": "linear", "use_bias": true, "kernel_initializer": {"class_name": "GlorotUniform", "config": {"seed": null}}, "bias_initializer": {"class_name": "Zeros", "config": {}}, "kernel_regularizer": null, "bias_regularizer": null, "activity_regularizer": null, "kernel_constraint": null, "bias_constraint": null}, "name": "Residual_bottleneck_exit_2_1_Conv", "inbound_nodes": [[["re_lu_18", 0, 0, {}]]]}, {"class_name": "BatchNormalization", "config": {"name": "Residual_bottleneck_exit_2_1_BatchNorm", "trainable": true, "dtype": "float32", "axis": [3], "momentum": 0.99, "epsilon": 0.001, "center": true, "scale": true, "beta_initializer": {"class_name": "Zeros", "config": {}}, "gamma_initializer": {"class_name": "Ones", "config": {}}, "moving_mean_initializer": {"class_name": "Zeros", "config": {}}, "moving_variance_initializer": {"class_name": "Ones", "config": {}}, "beta_regularizer": null, "gamma_regularizer": null, "beta_constraint": null, "gamma_constraint": null}, "name": "Residual_bottleneck_exit_2_1_BatchNorm", "inbound_nodes": [[["Residual_bottleneck_exit_2_1_Conv", 0, 0, {}]]]}, {"class_name": "Add", "config": {"name": "add_4", "trainable": true, "dtype": "float32"}, "name": "add_4", "inbound_nodes": [[["Residual_bottleneck_exit_2_1_BatchNorm", 0, 0, {}], ["Residual_bottleneck_exit_2_0_BatchNorm", 0, 0, {}]]]}, {"class_name": "Conv2D", "config": {"name": "Residual_bottleneck_entry_2_2_Conv", "trainable": true, "dtype": "float32", "filters": 768, "kernel_size": [1, 1], "strides": [1, 1], "padding": "same", "data_format": "channels_last", "dilation_rate": [1, 1], "groups": 1, "activation": "linear", "use_bias": true, "kernel_initializer": {"class_name": "GlorotUniform", "config": {"seed": null}}, "bias_initializer": {"class_name": "Zeros", "config": {}}, "kernel_regularizer": null, "bias_regularizer": null, "activity_regularizer": null, "kernel_constraint": null, "bias_constraint": null}, "name": "Residual_bottleneck_entry_2_2_Conv", "inbound_nodes": [[["add_4", 0, 0, {}]]]}, {"class_name": "BatchNormalization", "config": {"name": "Residual_bottleneck_entry_2_2_BatchNorm", "trainable": true, "dtype": "float32", "axis": [3], "momentum": 0.99, "epsilon": 0.001, "center": true, "scale": true, "beta_initializer": {"class_name": "Zeros", "config": {}}, "gamma_initializer": {"class_name": "Ones", "config": {}}, "moving_mean_initializer": {"class_name": "Zeros", "config": {}}, "moving_variance_initializer": {"class_name": "Ones", "config": {}}, "beta_regularizer": null, "gamma_regularizer": null, "beta_constraint": null, "gamma_constraint": null}, "name": "Residual_bottleneck_entry_2_2_BatchNorm", "inbound_nodes": [[["Residual_bottleneck_entry_2_2_Conv", 0, 0, {}]]]}, {"class_name": "ReLU", "config": {"name": "re_lu_19", "trainable": true, "dtype": "float32", "max_value": null, "negative_slope": 0.0, "threshold": 0.0}, "name": "re_lu_19", "inbound_nodes": [[["Residual_bottleneck_entry_2_2_BatchNorm", 0, 0, {}]]]}, {"class_name": "DepthwiseConv2D", "config": {"name": "depthwise_conv2d_8", "trainable": true, "dtype": "float32", "kernel_size": [3, 3], "strides": [1, 1], "padding": "same", "data_format": "channels_last", "dilation_rate": [1, 1], "groups": 1, "activation": "linear", "use_bias": true, "bias_initializer": {"class_name": "Zeros", "config": {}}, "bias_regularizer": null, "activity_regularizer": null, "bias_constraint": null, "depth_multiplier": 1, "depthwise_initializer": {"class_name": "GlorotUniform", "config": {"seed": null}}, "depthwise_regularizer": null, "depthwise_constraint": null}, "name": "depthwise_conv2d_8", "inbound_nodes": [[["re_lu_19", 0, 0, {}]]]}, {"class_name": "BatchNormalization", "config": {"name": "batch_normalization_8", "trainable": true, "dtype": "float32", "axis": [3], "momentum": 0.99, "epsilon": 0.001, "center": true, "scale": true, "beta_initializer": {"class_name": "Zeros", "config": {}}, "gamma_initializer": {"class_name": "Ones", "config": {}}, "moving_mean_initializer": {"class_name": "Zeros", "config": {}}, "moving_variance_initializer": {"class_name": "Ones", "config": {}}, "beta_regularizer": null, "gamma_regularizer": null, "beta_constraint": null, "gamma_constraint": null}, "name": "batch_normalization_8", "inbound_nodes": [[["depthwise_conv2d_8", 0, 0, {}]]]}, {"class_name": "ReLU", "config": {"name": "re_lu_20", "trainable": true, "dtype": "float32", "max_value": null, "negative_slope": 0.0, "threshold": 0.0}, "name": "re_lu_20", "inbound_nodes": [[["batch_normalization_8", 0, 0, {}]]]}, {"class_name": "Conv2D", "config": {"name": "Residual_bottleneck_exit_2_2_Conv", "trainable": true, "dtype": "float32", "filters": 128, "kernel_size": [1, 1], "strides": [1, 1], "padding": "same", "data_format": "channels_last", "dilation_rate": [1, 1], "groups": 1, "activation": "linear", "use_bias": true, "kernel_initializer": {"class_name": "GlorotUniform", "config": {"seed": null}}, "bias_initializer": {"class_name": "Zeros", "config": {}}, "kernel_regularizer": null, "bias_regularizer": null, "activity_regularizer": null, "kernel_constraint": null, "bias_constraint": null}, "name": "Residual_bottleneck_exit_2_2_Conv", "inbound_nodes": [[["re_lu_20", 0, 0, {}]]]}, {"class_name": "BatchNormalization", "config": {"name": "Residual_bottleneck_exit_2_2_BatchNorm", "trainable": true, "dtype": "float32", "axis": [3], "momentum": 0.99, "epsilon": 0.001, "center": true, "scale": true, "beta_initializer": {"class_name": "Zeros", "config": {}}, "gamma_initializer": {"class_name": "Ones", "config": {}}, "moving_mean_initializer": {"class_name": "Zeros", "config": {}}, "moving_variance_initializer": {"class_name": "Ones", "config": {}}, "beta_regularizer": null, "gamma_regularizer": null, "beta_constraint": null, "gamma_constraint": null}, "name": "Residual_bottleneck_exit_2_2_BatchNorm", "inbound_nodes": [[["Residual_bottleneck_exit_2_2_Conv", 0, 0, {}]]]}, {"class_name": "Add", "config": {"name": "add_5", "trainable": true, "dtype": "float32"}, "name": "add_5", "inbound_nodes": [[["Residual_bottleneck_exit_2_2_BatchNorm", 0, 0, {}], ["add_4", 0, 0, {}]]]}, {"class_name": "AveragePooling2D", "config": {"name": "average_pooling2d", "trainable": true, "dtype": "float32", "pool_size": [8, 4], "padding": "valid", "strides": [8, 4], "data_format": "channels_last"}, "name": "average_pooling2d", "inbound_nodes": [[["add_5", 0, 0, {}]]]}, {"class_name": "AveragePooling2D", "config": {"name": "average_pooling2d_1", "trainable": true, "dtype": "float32", "pool_size": [4, 2], "padding": "valid", "strides": [4, 2], "data_format": "channels_last"}, "name": "average_pooling2d_1", "inbound_nodes": [[["add_5", 0, 0, {}]]]}, {"class_name": "AveragePooling2D", "config": {"name": "average_pooling2d_2", "trainable": true, "dtype": "float32", "pool_size": [2, 1], "padding": "valid", "strides": [2, 1], "data_format": "channels_last"}, "name": "average_pooling2d_2", "inbound_nodes": [[["add_5", 0, 0, {}]]]}, {"class_name": "AveragePooling2D", "config": {"name": "average_pooling2d_3", "trainable": true, "dtype": "float32", "pool_size": [2, 1], "padding": "valid", "strides": [2, 1], "data_format": "channels_last"}, "name": "average_pooling2d_3", "inbound_nodes": [[["add_5", 0, 0, {}]]]}, {"class_name": "Conv2D", "config": {"name": "conv2d", "trainable": true, "dtype": "float32", "filters": 128, "kernel_size": [3, 3], "strides": [2, 2], "padding": "same", "data_format": "channels_last", "dilation_rate": [1, 1], "groups": 1, "activation": "linear", "use_bias": true, "kernel_initializer": {"class_name": "GlorotUniform", "config": {"seed": null}}, "bias_initializer": {"class_name": "Zeros", "config": {}}, "kernel_regularizer": null, "bias_regularizer": null, "activity_regularizer": null, "kernel_constraint": null, "bias_constraint": null}, "name": "conv2d", "inbound_nodes": [[["average_pooling2d", 0, 0, {}]]]}, {"class_name": "Conv2D", "config": {"name": "conv2d_1", "trainable": true, "dtype": "float32", "filters": 128, "kernel_size": [3, 3], "strides": [2, 2], "padding": "same", "data_format": "channels_last", "dilation_rate": [1, 1], "groups": 1, "activation": "linear", "use_bias": true, "kernel_initializer": {"class_name": "GlorotUniform", "config": {"seed": null}}, "bias_initializer": {"class_name": "Zeros", "config": {}}, "kernel_regularizer": null, "bias_regularizer": null, "activity_regularizer": null, "kernel_constraint": null, "bias_constraint": null}, "name": "conv2d_1", "inbound_nodes": [[["average_pooling2d_1", 0, 0, {}]]]}, {"class_name": "Conv2D", "config": {"name": "conv2d_2", "trainable": true, "dtype": "float32", "filters": 128, "kernel_size": [3, 3], "strides": [2, 2], "padding": "same", "data_format": "channels_last", "dilation_rate": [1, 1], "groups": 1, "activation": "linear", "use_bias": true, "kernel_initializer": {"class_name": "GlorotUniform", "config": {"seed": null}}, "bias_initializer": {"class_name": "Zeros", "config": {}}, "kernel_regularizer": null, "bias_regularizer": null, "activity_regularizer": null, "kernel_constraint": null, "bias_constraint": null}, "name": "conv2d_2", "inbound_nodes": [[["average_pooling2d_2", 0, 0, {}]]]}, {"class_name": "Conv2D", "config": {"name": "conv2d_3", "trainable": true, "dtype": "float32", "filters": 128, "kernel_size": [3, 3], "strides": [2, 2], "padding": "same", "data_format": "channels_last", "dilation_rate": [1, 1], "groups": 1, "activation": "linear", "use_bias": true, "kernel_initializer": {"class_name": "GlorotUniform", "config": {"seed": null}}, "bias_initializer": {"class_name": "Zeros", "config": {}}, "kernel_regularizer": null, "bias_regularizer": null, "activity_regularizer": null, "kernel_constraint": null, "bias_constraint": null}, "name": "conv2d_3", "inbound_nodes": [[["average_pooling2d_3", 0, 0, {}]]]}, {"class_name": "ResizeLayer", "config": {"name": "resize_layer", "trainable": true, "dtype": "float32", "w": 16, "h": 8}, "name": "resize_layer", "inbound_nodes": [[["conv2d", 0, 0, {}]]]}, {"class_name": "ResizeLayer", "config": {"name": "resize_layer_1", "trainable": true, "dtype": "float32", "w": 16, "h": 8}, "name": "resize_layer_1", "inbound_nodes": [[["conv2d_1", 0, 0, {}]]]}, {"class_name": "ResizeLayer", "config": {"name": "resize_layer_2", "trainable": true, "dtype": "float32", "w": 16, "h": 8}, "name": "resize_layer_2", "inbound_nodes": [[["conv2d_2", 0, 0, {}]]]}, {"class_name": "ResizeLayer", "config": {"name": "resize_layer_3", "trainable": true, "dtype": "float32", "w": 16, "h": 8}, "name": "resize_layer_3", "inbound_nodes": [[["conv2d_3", 0, 0, {}]]]}, {"class_name": "Concatenate", "config": {"name": "concatenate", "trainable": true, "dtype": "float32", "axis": -1}, "name": "concatenate", "inbound_nodes": [[["add_5", 0, 0, {}], ["resize_layer", 0, 0, {}], ["resize_layer_1", 0, 0, {}], ["resize_layer_2", 0, 0, {}], ["resize_layer_3", 0, 0, {}]]]}, {"class_name": "UpSampling2D", "config": {"name": "up_sampling2d", "trainable": true, "dtype": "float32", "size": [4, 4], "data_format": "channels_last", "interpolation": "nearest"}, "name": "up_sampling2d", "inbound_nodes": [[["concatenate", 0, 0, {}]]]}, {"class_name": "Conv2D", "config": {"name": "conv2d_4", "trainable": true, "dtype": "float32", "filters": 128, "kernel_size": [3, 3], "strides": [1, 1], "padding": "same", "data_format": "channels_last", "dilation_rate": [4, 4], "groups": 1, "activation": "linear", "use_bias": true, "kernel_initializer": {"class_name": "GlorotUniform", "config": {"seed": null}}, "bias_initializer": {"class_name": "Zeros", "config": {}}, "kernel_regularizer": null, "bias_regularizer": null, "activity_regularizer": null, "kernel_constraint": null, "bias_constraint": null}, "name": "conv2d_4", "inbound_nodes": [[["up_sampling2d", 0, 0, {}]]]}, {"class_name": "BatchNormalization", "config": {"name": "batch_normalization_9", "trainable": true, "dtype": "float32", "axis": [3], "momentum": 0.99, "epsilon": 0.001, "center": true, "scale": true, "beta_initializer": {"class_name": "Zeros", "config": {}}, "gamma_initializer": {"class_name": "Ones", "config": {}}, "moving_mean_initializer": {"class_name": "Zeros", "config": {}}, "moving_variance_initializer": {"class_name": "Ones", "config": {}}, "beta_regularizer": null, "gamma_regularizer": null, "beta_constraint": null, "gamma_constraint": null}, "name": "batch_normalization_9", "inbound_nodes": [[["conv2d_4", 0, 0, {}]]]}, {"class_name": "Conv2D", "config": {"name": "Feature_Fusion_Conv", "trainable": true, "dtype": "float32", "filters": 128, "kernel_size": [1, 1], "strides": [1, 1], "padding": "same", "data_format": "channels_last", "dilation_rate": [1, 1], "groups": 1, "activation": "linear", "use_bias": true, "kernel_initializer": {"class_name": "GlorotUniform", "config": {"seed": null}}, "bias_initializer": {"class_name": "Zeros", "config": {}}, "kernel_regularizer": null, "bias_regularizer": null, "activity_regularizer": null, "kernel_constraint": null, "bias_constraint": null}, "name": "Feature_Fusion_Conv", "inbound_nodes": [[["re_lu_2", 0, 0, {}]]]}, {"class_name": "ReLU", "config": {"name": "re_lu_21", "trainable": true, "dtype": "float32", "max_value": null, "negative_slope": 0.0, "threshold": 0.0}, "name": "re_lu_21", "inbound_nodes": [[["batch_normalization_9", 0, 0, {}]]]}, {"class_name": "BatchNormalization", "config": {"name": "Feature_Fusion_BatchNorm", "trainable": true, "dtype": "float32", "axis": [3], "momentum": 0.99, "epsilon": 0.001, "center": true, "scale": true, "beta_initializer": {"class_name": "Zeros", "config": {}}, "gamma_initializer": {"class_name": "Ones", "config": {}}, "moving_mean_initializer": {"class_name": "Zeros", "config": {}}, "moving_variance_initializer": {"class_name": "Ones", "config": {}}, "beta_regularizer": null, "gamma_regularizer": null, "beta_constraint": null, "gamma_constraint": null}, "name": "Feature_Fusion_BatchNorm", "inbound_nodes": [[["Feature_Fusion_Conv", 0, 0, {}]]]}, {"class_name": "Conv2D", "config": {"name": "conv2d_5", "trainable": true, "dtype": "float32", "filters": 128, "kernel_size": [1, 1], "strides": [1, 1], "padding": "same", "data_format": "channels_last", "dilation_rate": [1, 1], "groups": 1, "activation": "linear", "use_bias": true, "kernel_initializer": {"class_name": "GlorotUniform", "config": {"seed": null}}, "bias_initializer": {"class_name": "Zeros", "config": {}}, "kernel_regularizer": null, "bias_regularizer": null, "activity_regularizer": null, "kernel_constraint": null, "bias_constraint": null}, "name": "conv2d_5", "inbound_nodes": [[["re_lu_21", 0, 0, {}]]]}, {"class_name": "Add", "config": {"name": "add_6", "trainable": true, "dtype": "float32"}, "name": "add_6", "inbound_nodes": [[["Feature_Fusion_BatchNorm", 0, 0, {}], ["conv2d_5", 0, 0, {}]]]}, {"class_name": "BatchNormalization", "config": {"name": "batch_normalization_10", "trainable": true, "dtype": "float32", "axis": [3], "momentum": 0.99, "epsilon": 0.001, "center": true, "scale": true, "beta_initializer": {"class_name": "Zeros", "config": {}}, "gamma_initializer": {"class_name": "Ones", "config": {}}, "moving_mean_initializer": {"class_name": "Zeros", "config": {}}, "moving_variance_initializer": {"class_name": "Ones", "config": {}}, "beta_regularizer": null, "gamma_regularizer": null, "beta_constraint": null, "gamma_constraint": null}, "name": "batch_normalization_10", "inbound_nodes": [[["add_6", 0, 0, {}]]]}, {"class_name": "ReLU", "config": {"name": "re_lu_22", "trainable": true, "dtype": "float32", "max_value": null, "negative_slope": 0.0, "threshold": 0.0}, "name": "re_lu_22", "inbound_nodes": [[["batch_normalization_10", 0, 0, {}]]]}, {"class_name": "Conv2D", "config": {"name": "DSConv1_classifier", "trainable": true, "dtype": "float32", "filters": 128, "kernel_size": [3, 3], "strides": [1, 1], "padding": "same", "data_format": "channels_last", "dilation_rate": [1, 1], "groups": 1, "activation": "linear", "use_bias": true, "kernel_initializer": {"class_name": "GlorotUniform", "config": {"seed": null}}, "bias_initializer": {"class_name": "Zeros", "config": {}}, "kernel_regularizer": null, "bias_regularizer": null, "activity_regularizer": null, "kernel_constraint": null, "bias_constraint": null}, "name": "DSConv1_classifier", "inbound_nodes": [[["re_lu_22", 0, 0, {}]]]}, {"class_name": "BatchNormalization", "config": {"name": "batch_normalization_11", "trainable": true, "dtype": "float32", "axis": [3], "momentum": 0.99, "epsilon": 0.001, "center": true, "scale": true, "beta_initializer": {"class_name": "Zeros", "config": {}}, "gamma_initializer": {"class_name": "Ones", "config": {}}, "moving_mean_initializer": {"class_name": "Zeros", "config": {}}, "moving_variance_initializer": {"class_name": "Ones", "config": {}}, "beta_regularizer": null, "gamma_regularizer": null, "beta_constraint": null, "gamma_constraint": null}, "name": "batch_normalization_11", "inbound_nodes": [[["DSConv1_classifier", 0, 0, {}]]]}, {"class_name": "ReLU", "config": {"name": "re_lu_23", "trainable": true, "dtype": "float32", "max_value": null, "negative_slope": 0.0, "threshold": 0.0}, "name": "re_lu_23", "inbound_nodes": [[["batch_normalization_11", 0, 0, {}]]]}, {"class_name": "Conv2D", "config": {"name": "DSConv2_classifier", "trainable": true, "dtype": "float32", "filters": 128, "kernel_size": [3, 3], "strides": [1, 1], "padding": "same", "data_format": "channels_last", "dilation_rate": [1, 1], "groups": 1, "activation": "linear", "use_bias": true, "kernel_initializer": {"class_name": "GlorotUniform", "config": {"seed": null}}, "bias_initializer": {"class_name": "Zeros", "config": {}}, "kernel_regularizer": null, "bias_regularizer": null, "activity_regularizer": null, "kernel_constraint": null, "bias_constraint": null}, "name": "DSConv2_classifier", "inbound_nodes": [[["re_lu_23", 0, 0, {}]]]}, {"class_name": "BatchNormalization", "config": {"name": "batch_normalization_12", "trainable": true, "dtype": "float32", "axis": [3], "momentum": 0.99, "epsilon": 0.001, "center": true, "scale": true, "beta_initializer": {"class_name": "Zeros", "config": {}}, "gamma_initializer": {"class_name": "Ones", "config": {}}, "moving_mean_initializer": {"class_name": "Zeros", "config": {}}, "moving_variance_initializer": {"class_name": "Ones", "config": {}}, "beta_regularizer": null, "gamma_regularizer": null, "beta_constraint": null, "gamma_constraint": null}, "name": "batch_normalization_12", "inbound_nodes": [[["DSConv2_classifier", 0, 0, {}]]]}, {"class_name": "ReLU", "config": {"name": "re_lu_24", "trainable": true, "dtype": "float32", "max_value": null, "negative_slope": 0.0, "threshold": 0.0}, "name": "re_lu_24", "inbound_nodes": [[["batch_normalization_12", 0, 0, {}]]]}, {"class_name": "Conv2D", "config": {"name": "Final_reducing_convolution_Conv", "trainable": true, "dtype": "float32", "filters": 2, "kernel_size": [1, 1], "strides": [1, 1], "padding": "same", "data_format": "channels_last", "dilation_rate": [1, 1], "groups": 1, "activation": "linear", "use_bias": true, "kernel_initializer": {"class_name": "GlorotUniform", "config": {"seed": null}}, "bias_initializer": {"class_name": "Zeros", "config": {}}, "kernel_regularizer": null, "bias_regularizer": null, "activity_regularizer": null, "kernel_constraint": null, "bias_constraint": null}, "name": "Final_reducing_convolution_Conv", "inbound_nodes": [[["re_lu_24", 0, 0, {}]]]}, {"class_name": "BatchNormalization", "config": {"name": "Final_reducing_convolution_BatchNorm", "trainable": true, "dtype": "float32", "axis": [3], "momentum": 0.99, "epsilon": 0.001, "center": true, "scale": true, "beta_initializer": {"class_name": "Zeros", "config": {}}, "gamma_initializer": {"class_name": "Ones", "config": {}}, "moving_mean_initializer": {"class_name": "Zeros", "config": {}}, "moving_variance_initializer": {"class_name": "Ones", "config": {}}, "beta_regularizer": null, "gamma_regularizer": null, "beta_constraint": null, "gamma_constraint": null}, "name": "Final_reducing_convolution_BatchNorm", "inbound_nodes": [[["Final_reducing_convolution_Conv", 0, 0, {}]]]}, {"class_name": "Dropout", "config": {"name": "dropout", "trainable": true, "dtype": "float32", "rate": 0.3, "noise_shape": null, "seed": null}, "name": "dropout", "inbound_nodes": [[["Final_reducing_convolution_BatchNorm", 0, 0, {}]]]}, {"class_name": "UpSampling2D", "config": {"name": "up_sampling2d_1", "trainable": true, "dtype": "float32", "size": [8, 8], "data_format": "channels_last", "interpolation": "nearest"}, "name": "up_sampling2d_1", "inbound_nodes": [[["dropout", 0, 0, {}]]]}, {"class_name": "Softmax", "config": {"name": "softmax", "trainable": true, "dtype": "float32", "axis": -1}, "name": "softmax", "inbound_nodes": [[["up_sampling2d_1", 0, 0, {}]]]}], "input_layers": [["input_layer", 0, 0]], "output_layers": [["softmax", 0, 0]]}}, "training_config": {"loss": "categorical_crossentropy", "metrics": [[{"class_name": "MeanMetricWrapper", "config": {"name": "accuracy", "dtype": "float32", "fn": "categorical_accuracy"}}]], "weighted_metrics": null, "loss_weights": null, "optimizer_config": {"class_name": "Adam", "config": {"name": "Adam", "learning_rate": 0.009999999776482582, "decay": 0.0, "beta_1": 0.8999999761581421, "beta_2": 0.9990000128746033, "epsilon": 1e-07, "amsgrad": false}}}}, "weightsManifest": [{"paths": ["group1-shard1of3.bin", "group1-shard2of3.bin", "group1-shard3of3.bin"], "weights": [{"name": "DSConv1_classifier/kernel", "shape": [3, 3, 128, 128], "dtype": "float32"}, {"name": "DSConv1_classifier/bias", "shape": [128], "dtype": "float32"}, {"name": "DSConv2_classifier/kernel", "shape": [3, 3, 128, 128], "dtype": "float32"}, {"name": "DSConv2_classifier/bias", "shape": [128], "dtype": "float32"}, {"name": "Downsampling_1_BatchNorm/gamma", "shape": [32], "dtype": "float32"}, {"name": "Downsampling_1_BatchNorm/beta", "shape": [32], "dtype": "float32"}, {"name": "Downsampling_1_BatchNorm/moving_mean", "shape": [32], "dtype": "float32"}, {"name": "Downsampling_1_BatchNorm/moving_variance", "shape": [32], "dtype": "float32"}, {"name": "Downsampling_1_Conv/kernel", "shape": [3, 3, 3, 32], "dtype": "float32"}, {"name": "Downsampling_1_Conv/bias", "shape": [32], "dtype": "float32"}, {"name": "Downsampling_2_BatchNorm/gamma", "shape": [48], "dtype": "float32"}, {"name": "Downsampling_2_BatchNorm/beta", "shape": [48], "dtype": "float32"}, {"name": "Downsampling_2_BatchNorm/moving_mean", "shape": [48], "dtype": "float32"}, {"name": "Downsampling_2_BatchNorm/moving_variance", "shape": [48], "dtype": "float32"}, {"name": "Downsampling_2_SeparableConv/kernel", "shape": [3, 3, 32, 48], "dtype": "float32"}, {"name": "Downsampling_2_SeparableConv/bias", "shape": [48], "dtype": "float32"}, {"name": "Downsampling_3_BatchNorm/gamma", "shape": [64], "dtype": "float32"}, {"name": "Downsampling_3_BatchNorm/beta", "shape": [64], "dtype": "float32"}, {"name": "Downsampling_3_BatchNorm/moving_mean", "shape": [64], "dtype": "float32"}, {"name": "Downsampling_3_BatchNorm/moving_variance", "shape": [64], "dtype": "float32"}, {"name": "Downsampling_3_SeparableConv/kernel", "shape": [3, 3, 48, 64], "dtype": "float32"}, {"name": "Downsampling_3_SeparableConv/bias", "shape": [64], "dtype": "float32"}, {"name": "Feature_Fusion_BatchNorm/gamma", "shape": [128], "dtype": "float32"}, {"name": "Feature_Fusion_BatchNorm/beta", "shape": [128], "dtype": "float32"}, {"name": "Feature_Fusion_BatchNorm/moving_mean", "shape": [128], "dtype": "float32"}, {"name": "Feature_Fusion_BatchNorm/moving_variance", "shape": [128], "dtype": "float32"}, {"name": "Feature_Fusion_Conv/kernel", "shape": [1, 1, 64, 128], "dtype": "float32"}, {"name": "Feature_Fusion_Conv/bias", "shape": [128], "dtype": "float32"}, {"name": "Final_reducing_convolution_BatchNorm/gamma", "shape": [2], "dtype": "float32"}, {"name": "Final_reducing_convolution_BatchNorm/beta", "shape": [2], "dtype": "float32"}, {"name": "Final_reducing_convolution_BatchNorm/moving_mean", "shape": [2], "dtype": "float32"}, {"name": "Final_reducing_convolution_BatchNorm/moving_variance", "shape": [2], "dtype": "float32"}, {"name": "Final_reducing_convolution_Conv/kernel", "shape": [1, 1, 128, 2], "dtype": "float32"}, {"name": "Final_reducing_convolution_Conv/bias", "shape": [2], "dtype": "float32"}, {"name": "Residual_bottleneck_entry_0_0_BatchNorm/gamma", "shape": [384], "dtype": "float32"}, {"name": "Residual_bottleneck_entry_0_0_BatchNorm/beta", "shape": [384], "dtype": "float32"}, {"name": "Residual_bottleneck_entry_0_0_BatchNorm/moving_mean", "shape": [384], "dtype": "float32"}, {"name": "Residual_bottleneck_entry_0_0_BatchNorm/moving_variance", "shape": [384], "dtype": "float32"}, {"name": "Residual_bottleneck_entry_0_0_Conv/kernel", "shape": [1, 1, 64, 384], "dtype": "float32"}, {"name": "Residual_bottleneck_entry_0_0_Conv/bias", "shape": [384], "dtype": "float32"}, {"name": "Residual_bottleneck_entry_0_1_BatchNorm/gamma", "shape": [384], "dtype": "float32"}, {"name": "Residual_bottleneck_entry_0_1_BatchNorm/beta", "shape": [384], "dtype": "float32"}, {"name": "Residual_bottleneck_entry_0_1_BatchNorm/moving_mean", "shape": [384], "dtype": "float32"}, {"name": "Residual_bottleneck_entry_0_1_BatchNorm/moving_variance", "shape": [384], "dtype": "float32"}, {"name": "Residual_bottleneck_entry_0_1_Conv/kernel", "shape": [1, 1, 64, 384], "dtype": "float32"}, {"name": "Residual_bottleneck_entry_0_1_Conv/bias", "shape": [384], "dtype": "float32"}, {"name": "Residual_bottleneck_entry_0_2_BatchNorm/gamma", "shape": [384], "dtype": "float32"}, {"name": "Residual_bottleneck_entry_0_2_BatchNorm/beta", "shape": [384], "dtype": "float32"}, {"name": "Residual_bottleneck_entry_0_2_BatchNorm/moving_mean", "shape": [384], "dtype": "float32"}, {"name": "Residual_bottleneck_entry_0_2_BatchNorm/moving_variance", "shape": [384], "dtype": "float32"}, {"name": "Residual_bottleneck_entry_0_2_Conv/kernel", "shape": [1, 1, 64, 384], "dtype": "float32"}, {"name": "Residual_bottleneck_entry_0_2_Conv/bias", "shape": [384], "dtype": "float32"}, {"name": "Residual_bottleneck_entry_1_0_BatchNorm/gamma", "shape": [384], "dtype": "float32"}, {"name": "Residual_bottleneck_entry_1_0_BatchNorm/beta", "shape": [384], "dtype": "float32"}, {"name": "Residual_bottleneck_entry_1_0_BatchNorm/moving_mean", "shape": [384], "dtype": "float32"}, {"name": "Residual_bottleneck_entry_1_0_BatchNorm/moving_variance", "shape": [384], "dtype": "float32"}, {"name": "Residual_bottleneck_entry_1_0_Conv/kernel", "shape": [1, 1, 64, 384], "dtype": "float32"}, {"name": "Residual_bottleneck_entry_1_0_Conv/bias", "shape": [384], "dtype": "float32"}, {"name": "Residual_bottleneck_entry_1_1_BatchNorm/gamma", "shape": [576], "dtype": "float32"}, {"name": "Residual_bottleneck_entry_1_1_BatchNorm/beta", "shape": [576], "dtype": "float32"}, {"name": "Residual_bottleneck_entry_1_1_BatchNorm/moving_mean", "shape": [576], "dtype": "float32"}, {"name": "Residual_bottleneck_entry_1_1_BatchNorm/moving_variance", "shape": [576], "dtype": "float32"}, {"name": "Residual_bottleneck_entry_1_1_Conv/kernel", "shape": [1, 1, 96, 576], "dtype": "float32"}, {"name": "Residual_bottleneck_entry_1_1_Conv/bias", "shape": [576], "dtype": "float32"}, {"name": "Residual_bottleneck_entry_1_2_BatchNorm/gamma", "shape": [576], "dtype": "float32"}, {"name": "Residual_bottleneck_entry_1_2_BatchNorm/beta", "shape": [576], "dtype": "float32"}, {"name": "Residual_bottleneck_entry_1_2_BatchNorm/moving_mean", "shape": [576], "dtype": "float32"}, {"name": "Residual_bottleneck_entry_1_2_BatchNorm/moving_variance", "shape": [576], "dtype": "float32"}, {"name": "Residual_bottleneck_entry_1_2_Conv/kernel", "shape": [1, 1, 96, 576], "dtype": "float32"}, {"name": "Residual_bottleneck_entry_1_2_Conv/bias", "shape": [576], "dtype": "float32"}, {"name": "Residual_bottleneck_entry_2_0_BatchNorm/gamma", "shape": [576], "dtype": "float32"}, {"name": "Residual_bottleneck_entry_2_0_BatchNorm/beta", "shape": [576], "dtype": "float32"}, {"name": "Residual_bottleneck_entry_2_0_BatchNorm/moving_mean", "shape": [576], "dtype": "float32"}, {"name": "Residual_bottleneck_entry_2_0_BatchNorm/moving_variance", "shape": [576], "dtype": "float32"}, {"name": "Residual_bottleneck_entry_2_0_Conv/kernel", "shape": [1, 1, 96, 576], "dtype": "float32"}, {"name": "Residual_bottleneck_entry_2_0_Conv/bias", "shape": [576], "dtype": "float32"}, {"name": "Residual_bottleneck_entry_2_1_BatchNorm/gamma", "shape": [768], "dtype": "float32"}, {"name": "Residual_bottleneck_entry_2_1_BatchNorm/beta", "shape": [768], "dtype": "float32"}, {"name": "Residual_bottleneck_entry_2_1_BatchNorm/moving_mean", "shape": [768], "dtype": "float32"}, {"name": "Residual_bottleneck_entry_2_1_BatchNorm/moving_variance", "shape": [768], "dtype": "float32"}, {"name": "Residual_bottleneck_entry_2_1_Conv/kernel", "shape": [1, 1, 128, 768], "dtype": "float32"}, {"name": "Residual_bottleneck_entry_2_1_Conv/bias", "shape": [768], "dtype": "float32"}, {"name": "Residual_bottleneck_entry_2_2_BatchNorm/gamma", "shape": [768], "dtype": "float32"}, {"name": "Residual_bottleneck_entry_2_2_BatchNorm/beta", "shape": [768], "dtype": "float32"}, {"name": "Residual_bottleneck_entry_2_2_BatchNorm/moving_mean", "shape": [768], "dtype": "float32"}, {"name": "Residual_bottleneck_entry_2_2_BatchNorm/moving_variance", "shape": [768], "dtype": "float32"}, {"name": "Residual_bottleneck_entry_2_2_Conv/kernel", "shape": [1, 1, 128, 768], "dtype": "float32"}, {"name": "Residual_bottleneck_entry_2_2_Conv/bias", "shape": [768], "dtype": "float32"}, {"name": "Residual_bottleneck_exit_0_0_BatchNorm/gamma", "shape": [64], "dtype": "float32"}, {"name": "Residual_bottleneck_exit_0_0_BatchNorm/beta", "shape": [64], "dtype": "float32"}, {"name": "Residual_bottleneck_exit_0_0_BatchNorm/moving_mean", "shape": [64], "dtype": "float32"}, {"name": "Residual_bottleneck_exit_0_0_BatchNorm/moving_variance", "shape": [64], "dtype": "float32"}, {"name": "Residual_bottleneck_exit_0_0_Conv/kernel", "shape": [1, 1, 384, 64], "dtype": "float32"}, {"name": "Residual_bottleneck_exit_0_0_Conv/bias", "shape": [64], "dtype": "float32"}, {"name": "Residual_bottleneck_exit_0_1_BatchNorm/gamma", "shape": [64], "dtype": "float32"}, {"name": "Residual_bottleneck_exit_0_1_BatchNorm/beta", "shape": [64], "dtype": "float32"}, {"name": "Residual_bottleneck_exit_0_1_BatchNorm/moving_mean", "shape": [64], "dtype": "float32"}, {"name": "Residual_bottleneck_exit_0_1_BatchNorm/moving_variance", "shape": [64], "dtype": "float32"}, {"name": "Residual_bottleneck_exit_0_1_Conv/kernel", "shape": [1, 1, 384, 64], "dtype": "float32"}, {"name": "Residual_bottleneck_exit_0_1_Conv/bias", "shape": [64], "dtype": "float32"}, {"name": "Residual_bottleneck_exit_0_2_BatchNorm/gamma", "shape": [64], "dtype": "float32"}, {"name": "Residual_bottleneck_exit_0_2_BatchNorm/beta", "shape": [64], "dtype": "float32"}, {"name": "Residual_bottleneck_exit_0_2_BatchNorm/moving_mean", "shape": [64], "dtype": "float32"}, {"name": "Residual_bottleneck_exit_0_2_BatchNorm/moving_variance", "shape": [64], "dtype": "float32"}, {"name": "Residual_bottleneck_exit_0_2_Conv/kernel", "shape": [1, 1, 384, 64], "dtype": "float32"}, {"name": "Residual_bottleneck_exit_0_2_Conv/bias", "shape": [64], "dtype": "float32"}, {"name": "Residual_bottleneck_exit_1_0_BatchNorm/gamma", "shape": [96], "dtype": "float32"}, {"name": "Residual_bottleneck_exit_1_0_BatchNorm/beta", "shape": [96], "dtype": "float32"}, {"name": "Residual_bottleneck_exit_1_0_BatchNorm/moving_mean", "shape": [96], "dtype": "float32"}, {"name": "Residual_bottleneck_exit_1_0_BatchNorm/moving_variance", "shape": [96], "dtype": "float32"}, {"name": "Residual_bottleneck_exit_1_0_Conv/kernel", "shape": [1, 1, 384, 96], "dtype": "float32"}, {"name": "Residual_bottleneck_exit_1_0_Conv/bias", "shape": [96], "dtype": "float32"}, {"name": "Residual_bottleneck_exit_1_1_BatchNorm/gamma", "shape": [96], "dtype": "float32"}, {"name": "Residual_bottleneck_exit_1_1_BatchNorm/beta", "shape": [96], "dtype": "float32"}, {"name": "Residual_bottleneck_exit_1_1_BatchNorm/moving_mean", "shape": [96], "dtype": "float32"}, {"name": "Residual_bottleneck_exit_1_1_BatchNorm/moving_variance", "shape": [96], "dtype": "float32"}, {"name": "Residual_bottleneck_exit_1_1_Conv/kernel", "shape": [1, 1, 576, 96], "dtype": "float32"}, {"name": "Residual_bottleneck_exit_1_1_Conv/bias", "shape": [96], "dtype": "float32"}, {"name": "Residual_bottleneck_exit_1_2_BatchNorm/gamma", "shape": [96], "dtype": "float32"}, {"name": "Residual_bottleneck_exit_1_2_BatchNorm/beta", "shape": [96], "dtype": "float32"}, {"name": "Residual_bottleneck_exit_1_2_BatchNorm/moving_mean", "shape": [96], "dtype": "float32"}, {"name": "Residual_bottleneck_exit_1_2_BatchNorm/moving_variance", "shape": [96], "dtype": "float32"}, {"name": "Residual_bottleneck_exit_1_2_Conv/kernel", "shape": [1, 1, 576, 96], "dtype": "float32"}, {"name": "Residual_bottleneck_exit_1_2_Conv/bias", "shape": [96], "dtype": "float32"}, {"name": "Residual_bottleneck_exit_2_0_BatchNorm/gamma", "shape": [128], "dtype": "float32"}, {"name": "Residual_bottleneck_exit_2_0_BatchNorm/beta", "shape": [128], "dtype": "float32"}, {"name": "Residual_bottleneck_exit_2_0_BatchNorm/moving_mean", "shape": [128], "dtype": "float32"}, {"name": "Residual_bottleneck_exit_2_0_BatchNorm/moving_variance", "shape": [128], "dtype": "float32"}, {"name": "Residual_bottleneck_exit_2_0_Conv/kernel", "shape": [1, 1, 576, 128], "dtype": "float32"}, {"name": "Residual_bottleneck_exit_2_0_Conv/bias", "shape": [128], "dtype": "float32"}, {"name": "Residual_bottleneck_exit_2_1_BatchNorm/gamma", "shape": [128], "dtype": "float32"}, {"name": "Residual_bottleneck_exit_2_1_BatchNorm/beta", "shape": [128], "dtype": "float32"}, {"name": "Residual_bottleneck_exit_2_1_BatchNorm/moving_mean", "shape": [128], "dtype": "float32"}, {"name": "Residual_bottleneck_exit_2_1_BatchNorm/moving_variance", "shape": [128], "dtype": "float32"}, {"name": "Residual_bottleneck_exit_2_1_Conv/kernel", "shape": [1, 1, 768, 128], "dtype": "float32"}, {"name": "Residual_bottleneck_exit_2_1_Conv/bias", "shape": [128], "dtype": "float32"}, {"name": "Residual_bottleneck_exit_2_2_BatchNorm/gamma", "shape": [128], "dtype": "float32"}, {"name": "Residual_bottleneck_exit_2_2_BatchNorm/beta", "shape": [128], "dtype": "float32"}, {"name": "Residual_bottleneck_exit_2_2_BatchNorm/moving_mean", "shape": [128], "dtype": "float32"}, {"name": "Residual_bottleneck_exit_2_2_BatchNorm/moving_variance", "shape": [128], "dtype": "float32"}, {"name": "Residual_bottleneck_exit_2_2_Conv/kernel", "shape": [1, 1, 768, 128], "dtype": "float32"}, {"name": "Residual_bottleneck_exit_2_2_Conv/bias", "shape": [128], "dtype": "float32"}, {"name": "batch_normalization/gamma", "shape": [384], "dtype": "float32"}, {"name": "batch_normalization/beta", "shape": [384], "dtype": "float32"}, {"name": "batch_normalization/moving_mean", "shape": [384], "dtype": "float32"}, {"name": "batch_normalization/moving_variance", "shape": [384], "dtype": "float32"}, {"name": "batch_normalization_1/gamma", "shape": [384], "dtype": "float32"}, {"name": "batch_normalization_1/beta", "shape": [384], "dtype": "float32"}, {"name": "batch_normalization_1/moving_mean", "shape": [384], "dtype": "float32"}, {"name": "batch_normalization_1/moving_variance", "shape": [384], "dtype": "float32"}, {"name": "batch_normalization_10/gamma", "shape": [128], "dtype": "float32"}, {"name": "batch_normalization_10/beta", "shape": [128], "dtype": "float32"}, {"name": "batch_normalization_10/moving_mean", "shape": [128], "dtype": "float32"}, {"name": "batch_normalization_10/moving_variance", "shape": [128], "dtype": "float32"}, {"name": "batch_normalization_11/gamma", "shape": [128], "dtype": "float32"}, {"name": "batch_normalization_11/beta", "shape": [128], "dtype": "float32"}, {"name": "batch_normalization_11/moving_mean", "shape": [128], "dtype": "float32"}, {"name": "batch_normalization_11/moving_variance", "shape": [128], "dtype": "float32"}, {"name": "batch_normalization_12/gamma", "shape": [128], "dtype": "float32"}, {"name": "batch_normalization_12/beta", "shape": [128], "dtype": "float32"}, {"name": "batch_normalization_12/moving_mean", "shape": [128], "dtype": "float32"}, {"name": "batch_normalization_12/moving_variance", "shape": [128], "dtype": "float32"}, {"name": "batch_normalization_2/gamma", "shape": [384], "dtype": "float32"}, {"name": "batch_normalization_2/beta", "shape": [384], "dtype": "float32"}, {"name": "batch_normalization_2/moving_mean", "shape": [384], "dtype": "float32"}, {"name": "batch_normalization_2/moving_variance", "shape": [384], "dtype": "float32"}, {"name": "batch_normalization_3/gamma", "shape": [384], "dtype": "float32"}, {"name": "batch_normalization_3/beta", "shape": [384], "dtype": "float32"}, {"name": "batch_normalization_3/moving_mean", "shape": [384], "dtype": "float32"}, {"name": "batch_normalization_3/moving_variance", "shape": [384], "dtype": "float32"}, {"name": "batch_normalization_4/gamma", "shape": [576], "dtype": "float32"}, {"name": "batch_normalization_4/beta", "shape": [576], "dtype": "float32"}, {"name": "batch_normalization_4/moving_mean", "shape": [576], "dtype": "float32"}, {"name": "batch_normalization_4/moving_variance", "shape": [576], "dtype": "float32"}, {"name": "batch_normalization_5/gamma", "shape": [576], "dtype": "float32"}, {"name": "batch_normalization_5/beta", "shape": [576], "dtype": "float32"}, {"name": "batch_normalization_5/moving_mean", "shape": [576], "dtype": "float32"}, {"name": "batch_normalization_5/moving_variance", "shape": [576], "dtype": "float32"}, {"name": "batch_normalization_6/gamma", "shape": [576], "dtype": "float32"}, {"name": "batch_normalization_6/beta", "shape": [576], "dtype": "float32"}, {"name": "batch_normalization_6/moving_mean", "shape": [576], "dtype": "float32"}, {"name": "batch_normalization_6/moving_variance", "shape": [576], "dtype": "float32"}, {"name": "batch_normalization_7/gamma", "shape": [768], "dtype": "float32"}, {"name": "batch_normalization_7/beta", "shape": [768], "dtype": "float32"}, {"name": "batch_normalization_7/moving_mean", "shape": [768], "dtype": "float32"}, {"name": "batch_normalization_7/moving_variance", "shape": [768], "dtype": "float32"}, {"name": "batch_normalization_8/gamma", "shape": [768], "dtype": "float32"}, {"name": "batch_normalization_8/beta", "shape": [768], "dtype": "float32"}, {"name": "batch_normalization_8/moving_mean", "shape": [768], "dtype": "float32"}, {"name": "batch_normalization_8/moving_variance", "shape": [768], "dtype": "float32"}, {"name": "batch_normalization_9/gamma", "shape": [128], "dtype": "float32"}, {"name": "batch_normalization_9/beta", "shape": [128], "dtype": "float32"}, {"name": "batch_normalization_9/moving_mean", "shape": [128], "dtype": "float32"}, {"name": "batch_normalization_9/moving_variance", "shape": [128], "dtype": "float32"}, {"name": "conv2d/kernel", "shape": [3, 3, 128, 128], "dtype": "float32"}, {"name": "conv2d/bias", "shape": [128], "dtype": "float32"}, {"name": "conv2d_1/kernel", "shape": [3, 3, 128, 128], "dtype": "float32"}, {"name": "conv2d_1/bias", "shape": [128], "dtype": "float32"}, {"name": "conv2d_2/kernel", "shape": [3, 3, 128, 128], "dtype": "float32"}, {"name": "conv2d_2/bias", "shape": [128], "dtype": "float32"}, {"name": "conv2d_3/kernel", "shape": [3, 3, 128, 128], "dtype": "float32"}, {"name": "conv2d_3/bias", "shape": [128], "dtype": "float32"}, {"name": "conv2d_4/kernel", "shape": [3, 3, 640, 128], "dtype": "float32"}, {"name": "conv2d_4/bias", "shape": [128], "dtype": "float32"}, {"name": "conv2d_5/kernel", "shape": [1, 1, 128, 128], "dtype": "float32"}, {"name": "conv2d_5/bias", "shape": [128], "dtype": "float32"}, {"name": "depthwise_conv2d/depthwise_kernel", "shape": [3, 3, 384, 1], "dtype": "float32"}, {"name": "depthwise_conv2d/bias", "shape": [384], "dtype": "float32"}, {"name": "depthwise_conv2d_1/depthwise_kernel", "shape": [3, 3, 384, 1], "dtype": "float32"}, {"name": "depthwise_conv2d_1/bias", "shape": [384], "dtype": "float32"}, {"name": "depthwise_conv2d_2/depthwise_kernel", "shape": [3, 3, 384, 1], "dtype": "float32"}, {"name": "depthwise_conv2d_2/bias", "shape": [384], "dtype": "float32"}, {"name": "depthwise_conv2d_3/depthwise_kernel", "shape": [3, 3, 384, 1], "dtype": "float32"}, {"name": "depthwise_conv2d_3/bias", "shape": [384], "dtype": "float32"}, {"name": "depthwise_conv2d_4/depthwise_kernel", "shape": [3, 3, 576, 1], "dtype": "float32"}, {"name": "depthwise_conv2d_4/bias", "shape": [576], "dtype": "float32"}, {"name": "depthwise_conv2d_5/depthwise_kernel", "shape": [3, 3, 576, 1], "dtype": "float32"}, {"name": "depthwise_conv2d_5/bias", "shape": [576], "dtype": "float32"}, {"name": "depthwise_conv2d_6/depthwise_kernel", "shape": [3, 3, 576, 1], "dtype": "float32"}, {"name": "depthwise_conv2d_6/bias", "shape": [576], "dtype": "float32"}, {"name": "depthwise_conv2d_7/depthwise_kernel", "shape": [3, 3, 768, 1], "dtype": "float32"}, {"name": "depthwise_conv2d_7/bias", "shape": [768], "dtype": "float32"}, {"name": "depthwise_conv2d_8/depthwise_kernel", "shape": [3, 3, 768, 1], "dtype": "float32"}, {"name": "depthwise_conv2d_8/bias", "shape": [768], "dtype": "float32"}]}]}